project/result/data/MNISTcheckpoint.pt (torch_old, 651670 bytes, 4 tensors)

conv1.weight f4 [30, 4, 7, 7]
4.5107637e-07 3.2880192e-07 3.025127e-07 3.8814278e-07 4.1555163e-07 6.2471025e-07 3.83429e-07 1.1250436e-06
2.1324954e-06 3.932647e-05 0.99999255 0.99999255 0.99999255 3.6664333e-05 1.1940051e-05 3.352046e-05
0.00048574977 0.99999255 0.99999255 0.99999255 1.288306e-05 3.059511e-05 0.00012042374 0.04956771
0.9992038 0.3248655 0.01303874 1.0778615e-06 7.3507263e-06 1.7431666e-05 0.0066569205 0.0058096577
0.00013198376 1.694971e-05 5.7927383e-07 5.694135e-06 4.2772906e-05 0.0005529697 6.811809e-05 1.6073825e-05
1.8338658e-06 6.298216e-07 6.001888e-06 2.7859625e-05 2.145191e-05 1.0535253e-05 3.725591e-06 1.2912332e-06
6.367704e-07 1.5726407e-06 2.5789555e-05 0.9999751 0.99999255 0.99999255 0.99999255 0.99999255
9.956911e-06 0.0006306715 0.014343724 2.54613e-07 2.2606037e-07 3.1158805e-07 0.059612144 3.9784927e-06
0.00014590024 4.473978e-05 1.8523873e-07 2.3518689e-07 3.3673027e-07 0.9841714 3.0300048e-06 0.0001359793
1.5851052e-05 8.941532e-07 2.6055434e-06 0.000110589586 0.9982185 8.5967795e-06 0.00013684094 2.1563537e-05
1.3858864e-05 5.245542e-05 0.002011391 0.00191883 5.570278e-06 7.782279e-06 2.3077603e-06 2.2396541e-06
1.1587141e-05 0.00012530445 6.7974215e-06 2.7515564e-06 2.2871411e-06 1.5282516e-06 1.516713e-06 6.639442e-06
5.2446335e-06 1.1537259e-06 3.0962016e-07 4.0224296e-07 3.7020388e-07 3.7150568e-07 3.7943548e-07 3.965482e-07
4.6567004e-07 3.7586827e-07 5.9397155e-07 1.3045471e-06 0.61029077 0.99999255 0.99855125 9.554314e-06
5.138822e-07 8.6065756e-07 3.563144e-05 0.99999255 0.99999255 0.9991858 5.601062e-06 4.5003617e-07
8.0264937e-07 4.636575e-06 0.002583228 0.0010476685 1.8039816e-06 3.0531814e-07 4.5226008e-07 3.0280532e-07
7.475884e-07 1.1627186e-06 3.9396136e-07 4.160826e-07 2.309694e-07 2.6288703e-07 2.9595455e-07 3.9630112e-07
2.4794323e-07 2.2283336e-07 2.3503739e-07 2.68939e-07 2.9923524e-07 3.2517983e-07 2.6068565e-07 2.4048154e-07
2.2975708e-07 1.8632204e-07 2.8623813e-07 1.8490127e-07 1.8670241e-07 2.2619722e-07 1.6856936e-07 1.8571315e-07
1.8008171e-07 1.6636714e-07 2.2459255e-07 1.608511e-07 1.8609454e-07 1.8670781e-07 2.2570347e-07 2.0557924e-07
1.8870607e-07 1.5456662e-07 2.0107967e-07 1.9537754e-07 1.9733048e-07 2.3075299e-07 2.2998339e-07 1.6877812e-07
2.3589878e-07 1.6819067e-07 1.6964536e-07 2.1741057e-07 2.2361854e-07 2.0702038e-07 1.9212186e-07 2.1256211e-07
1.9931205e-07 2.1621354e-07 1.7885938e-07 1.9815296e-07 1.976149e-07 1.8738942e-07 1.8635409e-07 1.8734427e-07
1.8751942e-07 1.8802093e-07 2.2118049e-07 1.9705203e-07 1.6020641e-07 1.657811e-07 1.9249477e-07 2.4228717e-07
1.4030786e-07 2.2535787e-07 1.5604421e-07 1.9429373e-07 1.4024837e-06 0.0076695965 0.001953555 0.00022564741
1.6177397e-05 4.1606268e-06 2.968637e-06 1.1503863e-06 0.99010146 0.0064481427 9.183266e-05 9.717501e-06
5.012831e-06 2.8416987e-06 9.2907334e-07 0.99999255 0.00094240817 8.255415e-06 5.140638e-06 5.6269514e-06
6.2025447e-06 1.0619908e-06 0.99999255 0.008301312 3.5514304e-06 1.7010558e-05 5.6964327e-05 0.00018822834
8.0487285e-07 0.99999255 0.9999617 0.00012946791 7.066053e-05 0.00092059403 0.002067767 5.106042e-07
0.0013581113 0.99999255 0.99999255 0.99999255 0.99996966 0.549673 3.7707397e-07 4.457941e-07
4.1177418e-07 4.861164e-07 5.3587695e-07 6.2403683e-07 5.685163e-07 0.027377516 9.963344e-06 1.6525584e-06
2.3405048e-06 1.334669e-05 1.843651e-05 1.5784603e-05 0.99093235 3.3018982e-06 2.5772188e-06 1.1201496e-05
00000000: 772b f234 3186 b034 0769 a234 f061 d034
00000010: fb18 df34 c3b1 2735 15da cd34 3400 9735
00000020: fe1b 0f36 7af2 2438 83ff 7f3f 83ff 7f3f
00000030: 83ff 7f3f 07c8 1938 2152 4837 5298 0c38
00000040: 3bac fe39 83ff 7f3f 83ff 7f3f 83ff 7f3f
00000050: 5224 5837 4053 0038 018c fc38 8307 4b3d
00000060: d2cb 7f3f c554 a63e 70a0 553c 0aab 9035
00000070: 42a6 f636 383a 9237 4c22 da3b f15e be3b
00000080: 1f65 0a39 3a2f 8e37 657f 1b35 3f10 bf36
00000090: 0f67 3338 2bf5 103a 9fda 8e38 47d6 8637
000000a0: 2623 f635 0311 2935 d363 c936 17b4 e937
000000b0: a0f3 b337 91c0 3037 2a05 7a36 6f4e ad35
000000c0: 87ee 2a35 8613 d335 a656 d837 5efe 7f3f
000000d0: 83ff 7f3f 83ff 7f3f 83ff 7f3f 83ff 7f3f
000000e0: 9b0c 2737 a653 253a f001 6b3c bfb1 8834
000000f0: 00bb 7234 5648 a734 dd2b 743d fe7e 8536
00000100: ccfc 1839 f9a6 3b38 09e6 4634 ae87 7c34
00000110: dbc7 b434 a8f2 7b3f 1657 4b36 aa95 0e39
00000120: e0f7 8437 bd05 7035 e5da 2e36 55ec e738
00000130: 3f8b 7f3f e33a 1037 f67c 0f39 58e3 b437
00000140: 5e83 6837 9403 5c38 8bd1 033b 4081 fb3a
00000150: 53e8 ba36 a290 0237 05df 1a36 f74c 1636
00000160: 6466 4237 2864 0339 6815 e436 61a7 3836
00000170: c97c 1936 531e cd35 dd91 cb35 5fc8 de36
00000180: 0ffb af36 b8d9 9a35 df39 a634 daf3 d734
00000190: 6fc0 c634 5a73 c734 37b5 cb34 2be5 d434
000001a0: 3401 fa34 f1ca c934 6a71 1f35 e617 af35
000001b0: 043c 1c3f 83ff 7f3f 0ea1 7f3f 774b 2037
000001c0: b7f1 0935 f007 6735 f872 1538 83ff 7f3f
000001d0: 83ff 7f3f a4ca 7f3f c2f0 bb36 809c f134
000001e0: a575 5735 e093 9b36 604b 293b ec51 893a
000001f0: 5620 f235 9bea a334 27ce f234 3f91 a234
00000200: e2ad 4835 b50e 9c35 a381 d334 f561 df34
00000210: 6300 7834 eb22 8d34 afe3 9e34 36c3 d434
00000220: 0f1d 8534 f843 6f34 965e 7c34 b262 9034
00000230: 94a6 a034 6094 ae34 5df4 8b34 881b 8134
00000240: 25b3 7634 d00f 4834 45ac 9934 4689 4634
00000250: 5e78 4834 9ee0 7234 feff 3434 7168 4734
00000260: 7c5c 4134 a7a2 3234 8827 7134 6ab6 2c34
00000270: 47d1 4734 da79 4834 e658 7234 31bd 5c34
00000280: 219f 4a34 f3f6 2534 5ce8 5734 f8c8 5134
00000290: cae1 5334 e6c4 7734 5af1 7634 6039 3534
000002a0: 5d4b 7d34 e697 3434 c327 3634 5d71 6934
000002b0: cc1b 7034 5449 5e34 0e4a 4e34 a13c 6434
000002c0: 7b02 5634 5328 6834 7e0c 4034 dfc3 5434
000002d0: f82f 5434 3635 4934 9f18 4834 cd28 4934
000002e0: f258 4934 cde2 4934 a17d 6d34 4095 5334
000002f0: 3405 2c34 9001 3234 8fb0 4e34 b213 8234
00000300: 88a7 1634 e6f9 7134 1b8d 2734 0e9f 5034
00000310: f93c bc35 3d51 fb3b 3707 003b c49b 6c39
00000320: b2b4 8737 839b 8b36 cc38 4736 f966 9a35
00000330: 4a77 7d3f f14a d33b 4996 c038 5908 2337
00000340: e433 a836 03b4 3e36 6f65 7935 83ff 7f3f
00000350: f10b 773a bd80 0a37 bf7d ac36 25cf bc36
00000360: 741f d036 ba89 8e35 83ff 7f3f 3a02 083c
00000370: 1c55 6e36 e5b1 8e37 fbec 6e38 295f 4539
00000380: 710e 5835 83ff 7f3f 7dfd 7f3f c7c1 0739
00000390: 952f 9438 0554 713a 6083 073b 7410 0935
000003a0: a702 b23a 83ff 7f3f 83ff 7f3f 83ff 7f3f
000003b0: 03fe 7f3f 5fb7 0c3f a770 ca34 7955 ef34
000003c0: d011 dd34 aa7d 0235 2fd9 0f35 7c83 2735
000003d0: 259c 1835 d046 e03c 3d28 2737 79cd dd35
000003e0: 9111 1d36 99eb 5f37 1ba8 9a37 2d69 8437
000003f0: bead 7d3f 2e96 5d36 48f4 2c36 0fee 3b37

conv2.weight f4 [100, 30, 7, 7]
0.05006706 0.06377305 0.054930218 0.059846725 0.06135874 0.06184196 0.07313866 0.053548068
0.062116895 0.057661213 0.058174495 0.06654615 0.058711 0.0628897 0.05857556 0.06949178
0.05358388 0.051598478 0.060703494 0.058362633 0.08071453 0.058014043 0.06292163 0.06829213
0.054459564 0.058140513 0.06176359 0.0577245 0.06643383 0.0632928 0.060177602 0.08326165
0.07252258 0.07166996 0.06845963 0.062769294 0.055551697 0.07531035 0.060177766 0.053308073
0.11455417 0.06960455 0.06110111 0.04577484 0.057177655 0.056723908 0.06358221 0.090958595
0.15868457 0.055053305 0.05599496 0.05944002 0.05870825 0.050999198 0.05663718 0.045347735
0.057370294 0.06526916 0.0599711 0.071795955 0.05433178 0.057025313 0.06055743 0.051603727
0.07377303 0.06790271 0.070087895 0.06453435 0.0590286 0.046745453 0.0685668 0.078354195
0.06989312 0.053367894 0.077316225 0.057419367 0.05774916 0.06348346 0.060891885 0.053331513
0.06019286 0.06139712 0.07333689 0.10216139 0.057337902 0.06243688 0.05427493 0.07004289
0.06862083 0.07586665 0.33580482 0.06916054 0.054730915 0.055070445 0.050052356 0.056463175
0.060033083 0.06501172 0.060909677 0.0553828 0.07320751 0.05650099 0.062144343 0.07529949
0.10673133 0.06445529 0.06571273 0.055171136 0.06761935 0.054639522 0.066623695 0.08239409
0.061342496 0.05642749 0.07234242 0.06348568 0.06757784 0.0907474 0.07211101 0.05843698
0.051162027 0.060239907 0.066911876 0.059694648 0.08596906 0.08645574 0.059566617 0.061320655
0.058898054 0.056778654 0.05900556 0.08331231 0.106010064 0.048493765 0.065865 0.06980991
0.07755375 0.061068118 0.09240988 0.09588872 0.05819213 0.057879325 0.06673816 0.051458865
0.057340387 0.06779241 0.061911687 0.055877876 0.057420827 0.06512204 0.05728326 0.056798562
0.10054823 0.17807497 0.077298336 0.0586273 0.05776069 0.05012985 0.0676414 0.06565123
0.13692406 0.055968635 0.05436719 0.060220513 0.059554294 0.063761145 0.06842678 0.07257021
0.048308495 0.06155303 0.06178711 0.06011717 0.058761824 0.0696637 0.07589872 0.071357064
0.08003067 0.061827954 0.07418039 0.06499337 0.06253948 0.101883166 0.06709923 0.063930236
0.073523596 0.06134052 0.052993543 0.061608 0.07748674 0.06292303 0.0708965 0.060859352
0.0730982 0.056007106 0.048078164 0.063370176 0.058399417 0.06401535 0.06326955 0.05650452
0.08276746 0.06661016 0.06316625 0.06864086 0.063255414 0.061108686 0.054513153 0.04947641
0.06340861 0.07349529 0.051744163 0.047540866 0.05944818 0.06408749 0.047606364 0.081669785
0.06028397 0.07041152 0.05904883 0.06598082 0.071060255 0.064154685 0.06352547 0.07032555
0.05521495 0.061390765 0.06257188 0.055562112 0.06608247 0.13255212 0.1676224 0.05244138
0.06178122 0.06051744 0.0561262 0.05423227 0.32426158 0.9822112 0.073827386 0.049831294
0.057391103 0.060688045 0.056758434 0.05540029 0.12911801 0.052954584 0.0684818 0.057833977
0.063501865 0.05603083 0.06793028 0.06091543 0.062345173 0.06501342 0.058396976 0.0635244
00000000: 1e13 4d3d 729b 823d 82fe 603d d721 753d
00000010: 4d53 7b3d ff4d 7d3d b9c9 953d 3855 5b3d
00000020: 496e 7e3d 2a2e 6c3d 6148 6e3d 5949 883d
00000030: f27a 703d 51cc 803d edec 6f3d b551 8e3d
00000040: c57a 5b3d ed58 533d 3aa4 783d a80d 6f3d
00000050: a94d a53d 22a0 6d3d 0edd 803d bfdc 8b3d
00000060: fe10 5f3d bf24 6e3d d1fb 7c3d 8670 6c3d
00000070: 760e 883d a89f 813d ca7c 763d 1585 aa3d
00000080: b886 943d b3c7 923d 9034 8c3d 308d 803d
00000090: 2d8a 633d 503c 9a3d f67c 763d 9159 5a3d
000000a0: 609b ea3d d58c 8e3d 2845 7a3d 667e 3b3d
000000b0: 1e33 6a3d 5457 683d 6437 823d 8048 ba3d
000000c0: 357e 223e 937f 613d f95a 653d 6177 733d
000000d0: 1078 703d 89e4 503d 63fc 673d 8cbe 393d
000000e0: 1dfd 6a3d d6ab 853d 42a4 753d c209 933d
000000f0: 008b 5e3d 6093 693d 110b 783d 6e5e 533d
00000100: 5016 973d 9310 8b3d 3e8a 8f3d 962a 843d
00000110: f9c7 713d 2978 3f3d c06c 8c3d 2a78 a03d
00000120: 2024 8f3d 4b98 5a3d f857 9e3d 9230 6b3d
00000130: 628a 6c3d 9e03 823d c569 793d 2572 5a3d
00000140: ca8c 763d 8c7b 7b3d a731 963d fe39 d13d
00000150: 26db 6a3d d0bd 7f3d 644f 5e3d a672 8f3d
00000160: 1489 8c3d f95f 9b3d 9cee ab3e 0ba4 8d3d
00000170: 862d 603d 8c91 613d b303 4d3d ee45 673d
00000180: 40e5 753d dd24 853d 6d7c 793d 13d9 623d
00000190: d2ed 953d 956d 673d 118b 7e3d 9e36 9a3d
000001a0: f595 da3d 2301 843d 6594 863d 21fb 613d
000001b0: 047c 8a3d b1cd 5f3d 0172 883d 3cbe a83d
000001c0: 4542 7b3d 8320 673d 4328 943d c804 823d
000001d0: 4066 8a3d c6d9 b93d f0ae 933d 9d5b 6f3d
000001e0: 468f 513d 1fbe 763d 1809 893d 6082 743d
000001f0: 8c10 b03d b50f b13d 20fc 733d 5e2b 7b3d
00000200: 163f 713d bc90 683d d0af 713d a59f aa3d
00000210: ce1b d93d 66a1 463d 3be4 863d 80f8 8e3d
00000220: 80d4 9e3d 9022 7a3d 6441 bd3d 4e61 c43d
00000230: df5a 6e3d df12 6d3d 04ae 883d 88c6 523d
00000240: c1dd 6a3d bfd6 8a3d 1c97 7d3d 33e0 643d
00000250: 1a32 6b3d b45e 853d daa1 6a3d 9ca5 683d
00000260: 3bec cd3d 4959 363e 974e 9e3d 2e23 703d
00000270: 7996 6c3d f554 4d3d 9387 8a3d 2774 863d
00000280: d235 0c3e 5e3f 653d 21b0 5e3d c9a9 763d
00000290: 34ef 733d 3495 823d 5723 8c3d b19f 943d
000002a0: 21df 453d 081f 7c3d 7b14 7d3d 6c3d 763d
000002b0: 3db0 703d d8ab 8e3d ca70 9b3d a723 923d
000002c0: 1fe7 a33d 4f3f 7d3d e3eb 973d 3e1b 853d
000002d0: b314 803d 1fa8 d03d 526b 893d dbed 823d
000002e0: 8a93 963d 3240 7b3d c20f 593d ac58 7c3d
000002f0: 5eb1 9e3d cadd 803d 2f32 913d a847 793d
00000300: 82b4 953d b567 653d 9ced 443d 39c8 813d
00000310: 3a34 6f3d 7b1a 833d 7793 813d 4971 673d
00000320: fc81 a93d e86a 883d 4f5d 813d 9493 8c3d
00000330: 0e8c 813d 1a4d 7a3d 2f49 5f3d c7a7 4a3d
00000340: 60dc 813d b384 963d b0f1 533d 36ba 423d
00000350: ef7f 733d 4d40 833d e4fe 423d 7d42 a73d
00000360: 53ec 763d ea33 903d 30dd 713d f420 873d
00000370: 0a88 913d 8863 833d a419 823d d806 903d
00000380: 1229 623d e274 7b3d b025 803d 1995 633d
00000390: 3f56 873d bebb 073e 35a5 2b3e c6cc 563d
000003a0: 4e0e 7d3d 23e1 773d 96e4 653d a822 5e3d
000003b0: 9d05 a63e 3172 7b3f d032 973d e61b 4c3d
000003c0: ef12 6b3d 0794 783d 887b 683d 6aeb 623d
000003d0: 8337 043e e8e6 583d 3040 8c3d 52e3 6c3d
000003e0: 440d 823d 9580 653d 081f 8b3d 7582 793d
000003f0: a75d 7f3d c225 853d ab31 6f3d 1519 823d

stdp1.conv_layer.weight f4 [30, 4, 7, 7]
4.5107637e-07 3.2880192e-07 3.025127e-07 3.8814278e-07 4.1555163e-07 6.2471025e-07 3.83429e-07 1.1250436e-06
2.1324954e-06 3.932647e-05 0.99999255 0.99999255 0.99999255 3.6664333e-05 1.1940051e-05 3.352046e-05
0.00048574977 0.99999255 0.99999255 0.99999255 1.288306e-05 3.059511e-05 0.00012042374 0.04956771
0.9992038 0.3248655 0.01303874 1.0778615e-06 7.3507263e-06 1.7431666e-05 0.0066569205 0.0058096577
0.00013198376 1.694971e-05 5.7927383e-07 5.694135e-06 4.2772906e-05 0.0005529697 6.811809e-05 1.6073825e-05
1.8338658e-06 6.298216e-07 6.001888e-06 2.7859625e-05 2.145191e-05 1.0535253e-05 3.725591e-06 1.2912332e-06
6.367704e-07 1.5726407e-06 2.5789555e-05 0.9999751 0.99999255 0.99999255 0.99999255 0.99999255
9.956911e-06 0.0006306715 0.014343724 2.54613e-07 2.2606037e-07 3.1158805e-07 0.059612144 3.9784927e-06
0.00014590024 4.473978e-05 1.8523873e-07 2.3518689e-07 3.3673027e-07 0.9841714 3.0300048e-06 0.0001359793
1.5851052e-05 8.941532e-07 2.6055434e-06 0.000110589586 0.9982185 8.5967795e-06 0.00013684094 2.1563537e-05
1.3858864e-05 5.245542e-05 0.002011391 0.00191883 5.570278e-06 7.782279e-06 2.3077603e-06 2.2396541e-06
1.1587141e-05 0.00012530445 6.7974215e-06 2.7515564e-06 2.2871411e-06 1.5282516e-06 1.516713e-06 6.639442e-06
5.2446335e-06 1.1537259e-06 3.0962016e-07 4.0224296e-07 3.7020388e-07 3.7150568e-07 3.7943548e-07 3.965482e-07
4.6567004e-07 3.7586827e-07 5.9397155e-07 1.3045471e-06 0.61029077 0.99999255 0.99855125 9.554314e-06
5.138822e-07 8.6065756e-07 3.563144e-05 0.99999255 0.99999255 0.9991858 5.601062e-06 4.5003617e-07
8.0264937e-07 4.636575e-06 0.002583228 0.0010476685 1.8039816e-06 3.0531814e-07 4.5226008e-07 3.0280532e-07
7.475884e-07 1.1627186e-06 3.9396136e-07 4.160826e-07 2.309694e-07 2.6288703e-07 2.9595455e-07 3.9630112e-07
2.4794323e-07 2.2283336e-07 2.3503739e-07 2.68939e-07 2.9923524e-07 3.2517983e-07 2.6068565e-07 2.4048154e-07
2.2975708e-07 1.8632204e-07 2.8623813e-07 1.8490127e-07 1.8670241e-07 2.2619722e-07 1.6856936e-07 1.8571315e-07
1.8008171e-07 1.6636714e-07 2.2459255e-07 1.608511e-07 1.8609454e-07 1.8670781e-07 2.2570347e-07 2.0557924e-07
1.8870607e-07 1.5456662e-07 2.0107967e-07 1.9537754e-07 1.9733048e-07 2.3075299e-07 2.2998339e-07 1.6877812e-07
2.3589878e-07 1.6819067e-07 1.6964536e-07 2.1741057e-07 2.2361854e-07 2.0702038e-07 1.9212186e-07 2.1256211e-07
1.9931205e-07 2.1621354e-07 1.7885938e-07 1.9815296e-07 1.976149e-07 1.8738942e-07 1.8635409e-07 1.8734427e-07
1.8751942e-07 1.8802093e-07 2.2118049e-07 1.9705203e-07 1.6020641e-07 1.657811e-07 1.9249477e-07 2.4228717e-07
1.4030786e-07 2.2535787e-07 1.5604421e-07 1.9429373e-07 1.4024837e-06 0.0076695965 0.001953555 0.00022564741
1.6177397e-05 4.1606268e-06 2.968637e-06 1.1503863e-06 0.99010146 0.0064481427 9.183266e-05 9.717501e-06
5.012831e-06 2.8416987e-06 9.2907334e-07 0.99999255 0.00094240817 8.255415e-06 5.140638e-06 5.6269514e-06
6.2025447e-06 1.0619908e-06 0.99999255 0.008301312 3.5514304e-06 1.7010558e-05 5.6964327e-05 0.00018822834
8.0487285e-07 0.99999255 0.9999617 0.00012946791 7.066053e-05 0.00092059403 0.002067767 5.106042e-07
0.0013581113 0.99999255 0.99999255 0.99999255 0.99996966 0.549673 3.7707397e-07 4.457941e-07
4.1177418e-07 4.861164e-07 5.3587695e-07 6.2403683e-07 5.685163e-07 0.027377516 9.963344e-06 1.6525584e-06
2.3405048e-06 1.334669e-05 1.843651e-05 1.5784603e-05 0.99093235 3.3018982e-06 2.5772188e-06 1.1201496e-05
00000000: 772b f234 3186 b034 0769 a234 f061 d034
00000010: fb18 df34 c3b1 2735 15da cd34 3400 9735
00000020: fe1b 0f36 7af2 2438 83ff 7f3f 83ff 7f3f
00000030: 83ff 7f3f 07c8 1938 2152 4837 5298 0c38
00000040: 3bac fe39 83ff 7f3f 83ff 7f3f 83ff 7f3f
00000050: 5224 5837 4053 0038 018c fc38 8307 4b3d
00000060: d2cb 7f3f c554 a63e 70a0 553c 0aab 9035
00000070: 42a6 f636 383a 9237 4c22 da3b f15e be3b
00000080: 1f65 0a39 3a2f 8e37 657f 1b35 3f10 bf36
00000090: 0f67 3338 2bf5 103a 9fda 8e38 47d6 8637
000000a0: 2623 f635 0311 2935 d363 c936 17b4 e937
000000b0: a0f3 b337 91c0 3037 2a05 7a36 6f4e ad35
000000c0: 87ee 2a35 8613 d335 a656 d837 5efe 7f3f
000000d0: 83ff 7f3f 83ff 7f3f 83ff 7f3f 83ff 7f3f
000000e0: 9b0c 2737 a653 253a f001 6b3c bfb1 8834
000000f0: 00bb 7234 5648 a734 dd2b 743d fe7e 8536
00000100: ccfc 1839 f9a6 3b38 09e6 4634 ae87 7c34
00000110: dbc7 b434 a8f2 7b3f 1657 4b36 aa95 0e39
00000120: e0f7 8437 bd05 7035 e5da 2e36 55ec e738
00000130: 3f8b 7f3f e33a 1037 f67c 0f39 58e3 b437
00000140: 5e83 6837 9403 5c38 8bd1 033b 4081 fb3a
00000150: 53e8 ba36 a290 0237 05df 1a36 f74c 1636
00000160: 6466 4237 2864 0339 6815 e436 61a7 3836
00000170: c97c 1936 531e cd35 dd91 cb35 5fc8 de36
00000180: 0ffb af36 b8d9 9a35 df39 a634 daf3 d734
00000190: 6fc0 c634 5a73 c734 37b5 cb34 2be5 d434
000001a0: 3401 fa34 f1ca c934 6a71 1f35 e617 af35
000001b0: 043c 1c3f 83ff 7f3f 0ea1 7f3f 774b 2037
000001c0: b7f1 0935 f007 6735 f872 1538 83ff 7f3f
000001d0: 83ff 7f3f a4ca 7f3f c2f0 bb36 809c f134
000001e0: a575 5735 e093 9b36 604b 293b ec51 893a
000001f0: 5620 f235 9bea a334 27ce f234 3f91 a234
00000200: e2ad 4835 b50e 9c35 a381 d334 f561 df34
00000210: 6300 7834 eb22 8d34 afe3 9e34 36c3 d434
00000220: 0f1d 8534 f843 6f34 965e 7c34 b262 9034
00000230: 94a6 a034 6094 ae34 5df4 8b34 881b 8134
00000240: 25b3 7634 d00f 4834 45ac 9934 4689 4634
00000250: 5e78 4834 9ee0 7234 feff 3434 7168 4734
00000260: 7c5c 4134 a7a2 3234 8827 7134 6ab6 2c34
00000270: 47d1 4734 da79 4834 e658 7234 31bd 5c34
00000280: 219f 4a34 f3f6 2534 5ce8 5734 f8c8 5134
00000290: cae1 5334 e6c4 7734 5af1 7634 6039 3534
000002a0: 5d4b 7d34 e697 3434 c327 3634 5d71 6934
000002b0: cc1b 7034 5449 5e34 0e4a 4e34 a13c 6434
000002c0: 7b02 5634 5328 6834 7e0c 4034 dfc3 5434
000002d0: f82f 5434 3635 4934 9f18 4834 cd28 4934
000002e0: f258 4934 cde2 4934 a17d 6d34 4095 5334
000002f0: 3405 2c34 9001 3234 8fb0 4e34 b213 8234
00000300: 88a7 1634 e6f9 7134 1b8d 2734 0e9f 5034
00000310: f93c bc35 3d51 fb3b 3707 003b c49b 6c39
00000320: b2b4 8737 839b 8b36 cc38 4736 f966 9a35
00000330: 4a77 7d3f f14a d33b 4996 c038 5908 2337
00000340: e433 a836 03b4 3e36 6f65 7935 83ff 7f3f
00000350: f10b 773a bd80 0a37 bf7d ac36 25cf bc36
00000360: 741f d036 ba89 8e35 83ff 7f3f 3a02 083c
00000370: 1c55 6e36 e5b1 8e37 fbec 6e38 295f 4539
00000380: 710e 5835 83ff 7f3f 7dfd 7f3f c7c1 0739
00000390: 952f 9438 0554 713a 6083 073b 7410 0935
000003a0: a702 b23a 83ff 7f3f 83ff 7f3f 83ff 7f3f
000003b0: 03fe 7f3f 5fb7 0c3f a770 ca34 7955 ef34
000003c0: d011 dd34 aa7d 0235 2fd9 0f35 7c83 2735
000003d0: 259c 1835 d046 e03c 3d28 2737 79cd dd35
000003e0: 9111 1d36 99eb 5f37 1ba8 9a37 2d69 8437
000003f0: bead 7d3f 2e96 5d36 48f4 2c36 0fee 3b37

stdp2.conv_layer.weight f4 [100, 30, 7, 7]
0.05006706 0.06377305 0.054930218 0.059846725 0.06135874 0.06184196 0.07313866 0.053548068
0.062116895 0.057661213 0.058174495 0.06654615 0.058711 0.0628897 0.05857556 0.06949178
0.05358388 0.051598478 0.060703494 0.058362633 0.08071453 0.058014043 0.06292163 0.06829213
0.054459564 0.058140513 0.06176359 0.0577245 0.06643383 0.0632928 0.060177602 0.08326165
0.07252258 0.07166996 0.06845963 0.062769294 0.055551697 0.07531035 0.060177766 0.053308073
0.11455417 0.06960455 0.06110111 0.04577484 0.057177655 0.056723908 0.06358221 0.090958595
0.15868457 0.055053305 0.05599496 0.05944002 0.05870825 0.050999198 0.05663718 0.045347735
0.057370294 0.06526916 0.0599711 0.071795955 0.05433178 0.057025313 0.06055743 0.051603727
0.07377303 0.06790271 0.070087895 0.06453435 0.0590286 0.046745453 0.0685668 0.078354195
0.06989312 0.053367894 0.077316225 0.057419367 0.05774916 0.06348346 0.060891885 0.053331513
0.06019286 0.06139712 0.07333689 0.10216139 0.057337902 0.06243688 0.05427493 0.07004289
0.06862083 0.07586665 0.33580482 0.06916054 0.054730915 0.055070445 0.050052356 0.056463175
0.060033083 0.06501172 0.060909677 0.0553828 0.07320751 0.05650099 0.062144343 0.07529949
0.10673133 0.06445529 0.06571273 0.055171136 0.06761935 0.054639522 0.066623695 0.08239409
0.061342496 0.05642749 0.07234242 0.06348568 0.06757784 0.0907474 0.07211101 0.05843698
0.051162027 0.060239907 0.066911876 0.059694648 0.08596906 0.08645574 0.059566617 0.061320655
0.058898054 0.056778654 0.05900556 0.08331231 0.106010064 0.048493765 0.065865 0.06980991
0.07755375 0.061068118 0.09240988 0.09588872 0.05819213 0.057879325 0.06673816 0.051458865
0.057340387 0.06779241 0.061911687 0.055877876 0.057420827 0.06512204 0.05728326 0.056798562
0.10054823 0.17807497 0.077298336 0.0586273 0.05776069 0.05012985 0.0676414 0.06565123
0.13692406 0.055968635 0.05436719 0.060220513 0.059554294 0.063761145 0.06842678 0.07257021
0.048308495 0.06155303 0.06178711 0.06011717 0.058761824 0.0696637 0.07589872 0.071357064
0.08003067 0.061827954 0.07418039 0.06499337 0.06253948 0.101883166 0.06709923 0.063930236
0.073523596 0.06134052 0.052993543 0.061608 0.07748674 0.06292303 0.0708965 0.060859352
0.0730982 0.056007106 0.048078164 0.063370176 0.058399417 0.06401535 0.06326955 0.05650452
0.08276746 0.06661016 0.06316625 0.06864086 0.063255414 0.061108686 0.054513153 0.04947641
0.06340861 0.07349529 0.051744163 0.047540866 0.05944818 0.06408749 0.047606364 0.081669785
0.06028397 0.07041152 0.05904883 0.06598082 0.071060255 0.064154685 0.06352547 0.07032555
0.05521495 0.061390765 0.06257188 0.055562112 0.06608247 0.13255212 0.1676224 0.05244138
0.06178122 0.06051744 0.0561262 0.05423227 0.32426158 0.9822112 0.073827386 0.049831294
0.057391103 0.060688045 0.056758434 0.05540029 0.12911801 0.052954584 0.0684818 0.057833977
0.063501865 0.05603083 0.06793028 0.06091543 0.062345173 0.06501342 0.058396976 0.0635244
00000000: 1e13 4d3d 729b 823d 82fe 603d d721 753d
00000010: 4d53 7b3d ff4d 7d3d b9c9 953d 3855 5b3d
00000020: 496e 7e3d 2a2e 6c3d 6148 6e3d 5949 883d
00000030: f27a 703d 51cc 803d edec 6f3d b551 8e3d
00000040: c57a 5b3d ed58 533d 3aa4 783d a80d 6f3d
00000050: a94d a53d 22a0 6d3d 0edd 803d bfdc 8b3d
00000060: fe10 5f3d bf24 6e3d d1fb 7c3d 8670 6c3d
00000070: 760e 883d a89f 813d ca7c 763d 1585 aa3d
00000080: b886 943d b3c7 923d 9034 8c3d 308d 803d
00000090: 2d8a 633d 503c 9a3d f67c 763d 9159 5a3d
000000a0: 609b ea3d d58c 8e3d 2845 7a3d 667e 3b3d
000000b0: 1e33 6a3d 5457 683d 6437 823d 8048 ba3d
000000c0: 357e 223e 937f 613d f95a 653d 6177 733d
000000d0: 1078 703d 89e4 503d 63fc 673d 8cbe 393d
000000e0: 1dfd 6a3d d6ab 853d 42a4 753d c209 933d
000000f0: 008b 5e3d 6093 693d 110b 783d 6e5e 533d
00000100: 5016 973d 9310 8b3d 3e8a 8f3d 962a 843d
00000110: f9c7 713d 2978 3f3d c06c 8c3d 2a78 a03d
00000120: 2024 8f3d 4b98 5a3d f857 9e3d 9230 6b3d
00000130: 628a 6c3d 9e03 823d c569 793d 2572 5a3d
00000140: ca8c 763d 8c7b 7b3d a731 963d fe39 d13d
00000150: 26db 6a3d d0bd 7f3d 644f 5e3d a672 8f3d
00000160: 1489 8c3d f95f 9b3d 9cee ab3e 0ba4 8d3d
00000170: 862d 603d 8c91 613d b303 4d3d ee45 673d
00000180: 40e5 753d dd24 853d 6d7c 793d 13d9 623d
00000190: d2ed 953d 956d 673d 118b 7e3d 9e36 9a3d
000001a0: f595 da3d 2301 843d 6594 863d 21fb 613d
000001b0: 047c 8a3d b1cd 5f3d 0172 883d 3cbe a83d
000001c0: 4542 7b3d 8320 673d 4328 943d c804 823d
000001d0: 4066 8a3d c6d9 b93d f0ae 933d 9d5b 6f3d
000001e0: 468f 513d 1fbe 763d 1809 893d 6082 743d
000001f0: 8c10 b03d b50f b13d 20fc 733d 5e2b 7b3d
00000200: 163f 713d bc90 683d d0af 713d a59f aa3d
00000210: ce1b d93d 66a1 463d 3be4 863d 80f8 8e3d
00000220: 80d4 9e3d 9022 7a3d 6441 bd3d 4e61 c43d
00000230: df5a 6e3d df12 6d3d 04ae 883d 88c6 523d
00000240: c1dd 6a3d bfd6 8a3d 1c97 7d3d 33e0 643d
00000250: 1a32 6b3d b45e 853d daa1 6a3d 9ca5 683d
00000260: 3bec cd3d 4959 363e 974e 9e3d 2e23 703d
00000270: 7996 6c3d f554 4d3d 9387 8a3d 2774 863d
00000280: d235 0c3e 5e3f 653d 21b0 5e3d c9a9 763d
00000290: 34ef 733d 3495 823d 5723 8c3d b19f 943d
000002a0: 21df 453d 081f 7c3d 7b14 7d3d 6c3d 763d
000002b0: 3db0 703d d8ab 8e3d ca70 9b3d a723 923d
000002c0: 1fe7 a33d 4f3f 7d3d e3eb 973d 3e1b 853d
000002d0: b314 803d 1fa8 d03d 526b 893d dbed 823d
000002e0: 8a93 963d 3240 7b3d c20f 593d ac58 7c3d
000002f0: 5eb1 9e3d cadd 803d 2f32 913d a847 793d
00000300: 82b4 953d b567 653d 9ced 443d 39c8 813d
00000310: 3a34 6f3d 7b1a 833d 7793 813d 4971 673d
00000320: fc81 a93d e86a 883d 4f5d 813d 9493 8c3d
00000330: 0e8c 813d 1a4d 7a3d 2f49 5f3d c7a7 4a3d
00000340: 60dc 813d b384 963d b0f1 533d 36ba 423d
00000350: ef7f 733d 4d40 833d e4fe 423d 7d42 a73d
00000360: 53ec 763d ea33 903d 30dd 713d f420 873d
00000370: 0a88 913d 8863 833d a419 823d d806 903d
00000380: 1229 623d e274 7b3d b025 803d 1995 633d
00000390: 3f56 873d bebb 073e 35a5 2b3e c6cc 563d
000003a0: 4e0e 7d3d 23e1 773d 96e4 653d a822 5e3d
000003b0: 9d05 a63e 3172 7b3f d032 973d e61b 4c3d
000003c0: ef12 6b3d 0794 783d 887b 683d 6aeb 623d
000003d0: 8337 043e e8e6 583d 3040 8c3d 52e3 6c3d
000003e0: 440d 823d 9580 653d 081f 8b3d 7582 793d
000003f0: a75d 7f3d c225 853d ab31 6f3d 1519 823d
