project/result/MNISTcheckpoint.pt (torch_old, 657190 bytes, 4 tensors)

conv1.weight f4 [30, 2, 11, 11]
0	0x2413899c	3.1992104e-17
1	0x24101113	3.1239485e-17
2	0x23e595cf	2.4891676e-17
3	0x241efa26	3.4472673e-17
4	0x2382fc5d	1.4201508e-17
5	0x2380a1ca	1.3946308e-17
6	0x232952e2	9.1790595e-18
7	0x2383793f	1.4254398e-17
8	0x232bd185	9.314296e-18
9	0x237d8a54	1.374445e-17
10	0x236f0e1a	1.2959202e-17
11	0x24187412	3.305806e-17
12	0x23fc320b	2.7343089e-17
13	0x23f5f3d6	2.6666222e-17
14	0x23970dae	1.6377246e-17
15	0x239e6f52	1.717754e-17
16	0x234ba64b	1.1039866e-17
17	0x2357edfb	1.1705568e-17
18	0x237e7fdd	1.3796444e-17
19	0x237d4431	1.37295976e-17
20	0x238aa02e	1.5029829e-17
21	0x2393d3d0	1.6027478e-17
22	0x242665cf	3.6081747e-17
23	0x245fa874	4.8498102e-17
24	0x242c51e7	3.736593e-17
25	0x23ff5a7e	2.768548e-17
26	0x237dc91b	1.3757743e-17
27	0x23a93813	1.8346765e-17
28	0x2370b53f	1.30488064e-17
29	0x237ad3c3	1.35973694e-17
30	0x23791d98	1.3504584e-17
31	0x238fa3fb	1.557354e-17
32	0x23ea2f0f	2.5390261e-17
33	0x2472e74e	5.2671308e-17
34	0x2430ddd4	3.8351812e-17
35	0x23f3d61c	2.6436792e-17
36	0x239b53b9	1.6840592e-17
37	0x23bfb966	2.078678e-17
38	0x23d1fd4e	2.2767104e-17
39	0x236e4d1c	1.2918334e-17
40	0x23f6b137	2.6746427e-17
41	0x23dc13af	2.3860784e-17
42	0x2425acc4	3.592501e-17
43	0x240e2410	3.0821888e-17
44	0x24c81103	8.676499e-17
45	0x23f8af17	2.6962367e-17
46	0x23b1bdb0	1.9270714e-17
47	0x23b766d9	1.9884457e-17
48	0x23e82c97	2.5172375e-17
49	0x23997a6b	1.664014e-17
50	0x244da035	4.458799e-17
51	0x24172902	3.277764e-17
52	0x24514011	4.5373917e-17
53	0x24d72fea	9.3322556e-17
54	0x2436e7aa	3.9661186e-17
55	0x24255c4d	3.5856853e-17
56	0x23c24ecb	2.1066892e-17
57	0x232a3878	9.227676e-18
58	0x2355fb65	1.1599988e-17
59	0x23c6a120	2.1535442e-17
60	0x24134f8c	3.1942923e-17
61	0x24c3aee9	8.486408e-17
62	0x25145d0b	1.2868478e-16
63	0x255092e6	1.8090895e-16
64	0x24f1befb	1.0484062e-16
65	0x248d6eed	6.133692e-17
66	0x23f30000	2.6346113e-17
67	0x238ecd73	1.5482682e-17
68	0x2315ce74	8.121024e-18
69	0x234e381a	1.1179162e-17
70	0x25c8ca78	3.4831668e-16
71	0x279e810c	4.3993722e-15
72	0x2830f18b	9.822339e-15
73	0x27be6e65	5.2855284e-15
74	0x269ecc92	1.1018901e-15
75	0x2592bbe8	2.5454293e-16
76	0x24d4b150	9.224072e-17
77	0x347b9a72	2.3432384e-07
78	0x3f7fff83	0.99999255
79	0x3f7fff83	0.99999255
80	0x3f7fff83	0.99999255
81	0x3f7fff83	0.99999255
82	0x32dbfd48	2.5610134e-08
83	0x2ca076a9	4.5606474e-12
84	0x28744b36	1.356103e-14
85	0x269ed08b	1.1019978e-15
86	0x25e8f34b	4.0410446e-16
87	0x251fd0ac	1.3861752e-16
88	0x3f7fff83	0.99999255
89	0x3f7fff83	0.99999255
90	0x3f7fff83	0.99999255
91	0x3f7fff83	0.99999255
92	0x3f7fff83	0.99999255
93	0x395e0847	0.00021174653
94	0x2e2c9fa7	3.9250072e-11
95	0x295b6615	4.871631e-14
96	0x272bc7f1	2.3839406e-15
97	0x25f2bfde	4.2110322e-16
98	0x2533ed07	1.5606083e-16
99	0x3f7fff83	0.99999255
100	0x3f7ff7c9	0.99987465
101	0x2fe2cbbc	4.1253923e-10
102	0x2e0b1cb8	3.1630448e-11
103	0x3586c8de	1.0042238e-06
104	0x319ccc1a	4.563401e-09
105	0x2ce9ac86	6.6414122e-12
106	0x29a014c5	7.10903e-14
107	0x27814c6d	3.5887554e-15
108	0x260f86ba	4.979568e-16
109	0x25046397	1.1482917e-16
110	0x2aa31449	2.8968692e-13
111	0x2474ae9f	5.3056976e-17
112	0x2380b670	1.3955053e-17
113	0x260eeb4e	4.9585044e-16
114	0x2c4a16c1	2.8718557e-12
115	0x2d58c46b	1.2321792e-11
116	0x2cb0662a	5.0135633e-12
117	0x29eaf7d2	1.04346775e-13
118	0x276123d3	3.1244443e-15
119	0x25df2018	3.870608e-16
120	0x24bf8514	8.305849e-17
121	0x23e91b77	2.5273542e-17
122	0x23d2ac6a	2.2841266e-17
123	0x2421ffa3	3.5127843e-17
124	0x23a51c29	1.7901262e-17
125	0x236f74aa	1.29809205e-17
126	0x2365cb56	1.2457173e-17
127	0x233e160a	1.0304588e-17
128	0x233360c6	9.724102e-18
129	0x2333a81c	9.739208e-18
130	0x23597c0c	1.17898615e-17
131	0x2336d895	9.912103e-18
132	0x23d6b4cf	2.3278502e-17
133	0x23ae4a07	1.889647e-17
134	0x23b75d1f	1.9880338e-17
135	0x23719a9d	1.3097377e-17
136	0x2384f66f	1.4415837e-17
137	0x23aaab93	1.8504101e-17
138	0x23564b11	1.1616859e-17
139	0x2360b42d	1.2181218e-17
140	0x2310f89d	7.8589016e-18
141	0x2314ca31	8.065912e-18
142	0x235919e4	1.1769076e-17
143	0x2390ca81	1.5698275e-17
144	0x2362a3ea	1.2286195e-17
145	0x23821a9e	1.4105901e-17
146	0x230bbae8	7.574784e-18
147	0x2333ee75	9.754105e-18
148	0x233dab42	1.0281976e-17
149	0x2362a8ee	1.2287257e-17
150	0x233a9d56	1.0116397e-17
151	0x232608ac	9.000714e-18
152	0x233fbba1	1.0393863e-17
153	0x23423da7	1.05298165e-17
154	0x23978b76	1.6430517e-17
155	0x238a93f8	1.5024657e-17
156	0x23a86ec3	1.8261506e-17
157	0x2325de96	8.991802e-18
158	0x234aad01	1.0987077e-17
159	0x237afda8	1.3606241e-17
160	0x2395c779	1.6239092e-17
161	0x23b2ee27	1.939966e-17
162	0x239a0c97	1.6702045e-17
163	0x23830f1b	1.4209446e-17
164	0x23bc17d9	2.03931e-17
165	0x23f190e8	2.6190643e-17
166	0x23894f6a	1.4887203e-17
167	0x23c4e87b	2.1348822e-17
168	0x236eb1a1	1.293962e-17
169	0x23a03725	1.737059e-17
170	0x23f7c3dd	2.6862745e-17
171	0x241d8a57	3.4161127e-17
172	0x24838289	5.703333e-17
173	0x241f9e6f	3.4611828e-17
174	0x244fb1f2	4.5036695e-17
175	0x241892da	3.3084134e-17
176	0x25d100ad	3.6256179e-16
177	0x25a8d872	2.9290023e-16
178	0x267ca2cd	8.76507e-16
179	0x2749ff31	2.8032693e-15
180	0x276a1c4a	3.248936e-15
181	0x27ad7b31	4.815071e-15
182	0x26e0d094	1.5599658e-15
183	0x26830fae	9.094201e-16
184	0x2594c4f7	2.5807376e-16
185	0x2512cc53	1.2732709e-16
186	0x251b869e	1.3489717e-16
187	0x3f7fff83	0.99999255
188	0x3f7fff83	0.99999255
189	0x3f7fff83	0.99999255
190	0x3f7fff83	0.99999255
191	0x3f7fff83	0.99999255
192	0x3f7fd148	0.9992871
193	0x2a947df0	2.6377468e-13
194	0x27084ad3	1.8914354e-15
195	0x25c8ca5a	3.4831588e-16
196	0x25a2321e	2.813648e-16
197	0x25b2a742	3.0991416e-16
198	0x30581e38	7.8623286e-10
199	0x26968db8	1.0446754e-15
200	0x2389d1c4	1.4942409e-17
201	0x22ca6f4b	5.4870046e-18
202	0x25c7056e	3.4524676e-16
203	0x34a8ea01	3.14627e-07
204	0x3199ea39	4.479514e-09
205	0x2b49ab3c	7.164718e-13
206	0x28856099	1.4807859e-14
207	0x26c6c374	1.3791988e-15
208	0x25366efe	1.5823589e-16
209	0x23850311	1.4421188e-17
210	0x22513eaf	2.8357966e-18
211	0x22889b10	3.7027053e-18
212	0x22a8a55b	4.571157e-18
213	0x2408e60b	2.9685153e-17
214	0x2e846bb8	6.0218e-11
215	0x2fa8572c	3.062096e-10
216	0x2d2fd953	9.995854e-12
217	0x28bfc106	2.128897e-14
218	0x26d6bcf6	1.4900451e-15
219	0x2598cfdf	2.6508656e-16
220	0x288401b6	1.4655686e-14
221	0x29c244e3	8.6272806e-14
222	0x317aa265	3.6472099e-09
223	0x3875115a	5.842871e-05
224	0x3c85d631	0.016337486
225	0x3f72c4ae	0.9483136
226	0x2fb19b5f	3.230651e-10
227	0x2b8f1f14	1.0169387e-12
228	0x2890ca9c	1.607508e-14
229	0x26b26484	1.2378476e-15
230	0x25d0cbb5	3.6220286e-16
231	0x3f7fe033	0.99951476
232	0x3f7fff83	0.99999255
233	0x3f7fff83	0.99999255
234	0x3f784c77	0.96991676
235	0x2fabc283	3.1242928e-10
236	0x2d2fd24f	9.994296e-12
237	0x2b8eff6b	1.01606e-12
238	0x2a6bde34	2.0949285e-13
239	0x284c38a9	1.1336561e-14
240	0x26b4e4bb	1.2552007e-15
241	0x25a694d7	2.8897268e-16
242	0x220adf06	1.8820555e-18
243	0x22111a91	1.9665229e-18
244	0x22232428	2.210976e-18
245	0x221c6929	2.1197614e-18
246	0x2238cfdf	2.5046696e-18
247	0x221cd8d5	2.1256732e-18
248	0x223d80f2	2.568254e-18
249	0x22971754	4.095333e-18
250	0x268db160	9.831918e-16
251	0x31196cdd	2.2326312e-09
252	0x3b8fc616	0.0043876274
253	0x21ea76f9	1.5887949e-18
254	0x223b1c8b	2.5358336e-18
255	0x22099a38	1.8648605e-18

conv2.weight f4 [100, 30, 7, 7]
0	0x3e6102cc	0.21973723
1	0x3e57f0ce	0.21087953
2	0x3e54a0a3	0.20764403
3	0x3e8f3160	0.27967358
4	0x3e70fc93	0.2353385
5	0x3eb57135	0.35437933
6	0x3eb7b621	0.3588114
7	0x3e8ff672	0.2811771
8	0x3ea6b6bc	0.3256129
9	0x3e77e8be	0.24209878
10	0x3e9fc3f5	0.3120419
11	0x3e9211e6	0.2852928
12	0x3e6fbabd	0.23411079
13	0x3e9e68e3	0.30939397
14	0x3e913bd2	0.28365952
15	0x3e488c01	0.19584657
16	0x3e8861f8	0.26637244
17	0x3e97982c	0.29608285
18	0x3eddfbda	0.4335621
19	0x3e8195d5	0.25309625
20	0x3f09b147	0.5378613
21	0x3e81f8cf	0.25385138
22	0x3e8efed6	0.279288
23	0x3eb3406e	0.35010093
24	0x3e904844	0.28180134
25	0x3e96f74c	0.29485548
26	0x3eb44b01	0.35213473
27	0x3e89e10e	0.26929516
28	0x3eee781d	0.46576014
29	0x3e8d365d	0.27580538
30	0x3e5f4eec	0.2180745
31	0x3f079d79	0.5297466
32	0x3e97157c	0.2950858
33	0x3e4f8e48	0.2026912
34	0x3e808b93	0.25106487
35	0x3ea7fac6	0.32808512
36	0x3e5bec57	0.21476875
37	0x3ea3b912	0.31977135
38	0x3e68b0bc	0.22723669
39	0x3ea49a1b	0.32148823
40	0x3e35e2ca	0.17762294
41	0x3ea41b47	0.3205206
42	0x3e9e5db5	0.30930868
43	0x3e714818	0.23562658
44	0x3e89586d	0.26825276
45	0x3e6897aa	0.22714105
46	0x3e72752d	0.23677512
47	0x3e7d17ce	0.24716112
48	0x3ebe23ab	0.37136588
49	0x3ef9983a	0.48748952
50	0x3ed54d9e	0.4166078
51	0x3e7cde29	0.24694122
52	0x3e2b317c	0.16718096
53	0x3e84332a	0.25820285
54	0x3eac1e85	0.33617035
55	0x3e99e701	0.30059054
56	0x3ef2fc71	0.47458223
57	0x3f06137d	0.52373487
58	0x3ec02a70	0.37532377
59	0x3e69d6d5	0.22835858
60	0x3e9b8549	0.30375126
61	0x3e4d2a4e	0.20035669
62	0x3e43665f	0.1908202
63	0x3ee18739	0.4404848
64	0x3eb9fce1	0.36325744
65	0x3eb8c5c9	0.36088398
66	0x3e7924ad	0.24330397
67	0x3e982380	0.29714584
68	0x3e4c38cf	0.19943546
69	0x3e5aecb0	0.21379352
70	0x3e5c4c01	0.21513368
71	0x3e41b4ae	0.1891658
72	0x3e92724d	0.2860283
73	0x3e9fb691	0.31193975
74	0x3e9867e9	0.29766777
75	0x3e827bed	0.25485173
76	0x3eb65889	0.35614422
77	0x3e8af257	0.27138016
78	0x3ea13966	0.31489104
79	0x3e671133	0.22565155
80	0x3eb4cf31	0.35314324
81	0x3e2f2d63	0.17107157
82	0x3e796bc6	0.24357519
83	0x3ea21f57	0.31664535
84	0x3e58d1ca	0.21173778
85	0x3e56a723	0.20962195
86	0x3ea60d64	0.3243209
87	0x3ee5f222	0.44911295
88	0x3e490d44	0.19633967
89	0x3e29e602	0.16591647
90	0x3e8bb124	0.27283585
91	0x3e6854aa	0.22688547
92	0x3e70ccb1	0.23515584
93	0x3ec641f8	0.38722205
94	0x3e4a5473	0.19758777
95	0x3e821664	0.25407708
96	0x3e521e20	0.20519304
97	0x3e86f9dd	0.26362506
98	0x3ed68af3	0.41902885
99	0x3e672c5a	0.22575513
100	0x3eb03327	0.34414026
101	0x3e8113e1	0.2521048
102	0x3e6834ca	0.22676387
103	0x3e82f29f	0.2557573
104	0x3eb6609e	0.35620588
105	0x3f1ca3e0	0.61187553
106	0x3ec1295a	0.3772686
107	0x3ea6df3e	0.32592195
108	0x3e6efde9	0.23339047
109	0x3e569c01	0.20957948
110	0x3e5f545a	0.21809521
111	0x3e8e3f9c	0.27782905
112	0x3ea34910	0.3189168
113	0x3eae5a37	0.34053203
114	0x3ebaac00	0.3645935
115	0x3e9790e9	0.29602745
116	0x3e44ec2d	0.19230719
117	0x3e8af8d2	0.2714296
118	0x3e5946c4	0.21218401
119	0x3e94e006	0.29077166
120	0x3e92e4a7	0.28690073
121	0x3e2f4ad0	0.17118382
122	0x3e9983f9	0.299835
123	0x3e679b4b	0.22617833
124	0x3e7f1962	0.24912027
125	0x3e6aff19	0.22948875
126	0x3e4934d7	0.19649063
127	0x3ea606f4	0.3242718
128	0x3ea73677	0.3265874
129	0x3e6cb0dd	0.23114343
130	0x3e49aa35	0.19693835
131	0x3e8fa3bf	0.28054616
132	0x3e53ef4b	0.20696752
133	0x3e85e384	0.26150143
134	0x3e88c2ab	0.2671102
135	0x3e73ea07	0.23819743
136	0x3e93bd41	0.28855327
137	0x3e80ab51	0.25130704
138	0x3e5cfa40	0.21579838
139	0x3e9627e5	0.29327312
140	0x3e613a9b	0.21995012
141	0x3ea4ed63	0.32212362
142	0x3ee40872	0.44537693
143	0x3f46e0d1	0.7768679
144	0x3e794112	0.24341229
145	0x3e7f7a60	0.24949026
146	0x3e84ddd1	0.25950482
147	0x3ebe3de1	0.37156585
148	0x3e70be10	0.23510003
149	0x3e93be47	0.28856108
150	0x3e8e549e	0.27798933
151	0x3e9ed0f6	0.310188
152	0x3e747634	0.23873216
153	0x3e5f4276	0.21802697
154	0x3eedc3bf	0.46438405
155	0x3e9d7287	0.3075144
156	0x3e86ae2d	0.2630476
157	0x3e98a81f	0.29815766
158	0x3e864620	0.26225376
159	0x3e8e6338	0.27810073
160	0x3e77ff43	0.24218468
161	0x3e5c779a	0.2153
162	0x3e26dc67	0.16295014
163	0x3e769de2	0.24083665
164	0x3e87051b	0.26371083
165	0x3e9d6a77	0.3074529
166	0x3e8be189	0.27320507
167	0x3e49519e	0.1966004
168	0x3e28e7cb	0.16494672
169	0x3e63ef3d	0.22259231
170	0x3ea0cf13	0.31407985
171	0x3eb30c62	0.34970385
172	0x3edacdaf	0.4273505
173	0x3e9b68e4	0.30353463
174	0x3e8ad23d	0.27113524
175	0x3e5685ba	0.2094945
176	0x3e644b63	0.22294383
177	0x3e58942b	0.21150272
178	0x3e949df2	0.29026753
179	0x3e503db0	0.20336032
180	0x3ed05a18	0.40693736
181	0x3ea162dd	0.3152074
182	0x3e68f6fa	0.22750464
183	0x3e7d48e0	0.24734831
184	0x3e46cf13	0.1941493
185	0x3e4e9513	0.20174055
186	0x3e75ffd5	0.24023373
187	0x3ea60548	0.32425904
188	0x3e7d87ea	0.24758878
189	0x3e5e944a	0.21736255
190	0x3e8088dc	0.25104415
191	0x3ea9d906	0.33173388
192	0x3e9ff487	0.31241247
193	0x3e82a809	0.25518826
194	0x3e3f8a89	0.1870519
195	0x3eb309e5	0.34968486
196	0x3e6947a3	0.22781233
197	0x3e9076c6	0.28215617
198	0x3e86828d	0.26271477
199	0x3e393969	0.18088306
200	0x3eb221fd	0.34791556
201	0x3e8ada41	0.2711964
202	0x3e6f505c	0.23370498
203	0x3e681ff0	0.22668433
204	0x3e6a6ef4	0.22893888
205	0x3e9d540e	0.3072819
206	0x3f046ba3	0.5172674
207	0x3ef9df11	0.48803
208	0x3e935d1d	0.28781977
209	0x3e877f5f	0.26464364
210	0x3e8a3dda	0.27000314
211	0x3e67b2fd	0.22626872
212	0x3eac0666	0.33598632
213	0x3ea00bd6	0.3125903
214	0x3ecaf213	0.39637813
215	0x3e62cdeb	0.22148864
216	0x3e2401fb	0.1601638
217	0x3e847a5e	0.2587461
218	0x3ea7acef	0.32749125
219	0x3e40e043	0.18835549
220	0x3e89740b	0.26846346
221	0x3ec68eee	0.38780922
222	0x3e6c0826	0.23049983
223	0x3e8a4946	0.27009028
224	0x3ebc7855	0.36810556
225	0x3ea02ed1	0.31285718
226	0x3e5d8b2b	0.2163512
227	0x3e68b4cd	0.2272522
228	0x3e3e6251	0.18592192
229	0x3e756030	0.23962474
230	0x3ef17bfa	0.471649
231	0x3eab66d2	0.33476883
232	0x3e5fa8c0	0.21841717
233	0x3e98630d	0.2976307
234	0x3f196223	0.5991537
235	0x3ec45c7a	0.38351804
236	0x3eb6c6c5	0.35698524
237	0x3e9f00aa	0.31055194
238	0x3e4737d4	0.1945489
239	0x3e859411	0.26089528
240	0x3e81122a	0.2520917
241	0x3e7efbf9	0.24900807
242	0x3e14b7af	0.14523195
243	0x3e7c06ec	0.24612015
244	0x3e5417c6	0.20712194
245	0x3ee06f76	0.43835038
246	0x3e872f67	0.26403353
247	0x3e7b1399	0.24519195
248	0x3eb39ee0	0.3508215
249	0x3e9f49d8	0.31111026
250	0x3f13643e	0.5757483
251	0x3e7afcd9	0.24510516
252	0x3e831050	0.25598383
253	0x3e6da62b	0.2320792
254	0x3e6cad43	0.23112969
255	0x3e85f77a	0.26165372

stdp1.conv_layer.weight f4 [30, 2, 11, 11]
0	0x2413899c	3.1992104e-17
1	0x24101113	3.1239485e-17
2	0x23e595cf	2.4891676e-17
3	0x241efa26	3.4472673e-17
4	0x2382fc5d	1.4201508e-17
5	0x2380a1ca	1.3946308e-17
6	0x232952e2	9.1790595e-18
7	0x2383793f	1.4254398e-17
8	0x232bd185	9.314296e-18
9	0x237d8a54	1.374445e-17
10	0x236f0e1a	1.2959202e-17
11	0x24187412	3.305806e-17
12	0x23fc320b	2.7343089e-17
13	0x23f5f3d6	2.6666222e-17
14	0x23970dae	1.6377246e-17
15	0x239e6f52	1.717754e-17
16	0x234ba64b	1.1039866e-17
17	0x2357edfb	1.1705568e-17
18	0x237e7fdd	1.3796444e-17
19	0x237d4431	1.37295976e-17
20	0x238aa02e	1.5029829e-17
21	0x2393d3d0	1.6027478e-17
22	0x242665cf	3.6081747e-17
23	0x245fa874	4.8498102e-17
24	0x242c51e7	3.736593e-17
25	0x23ff5a7e	2.768548e-17
26	0x237dc91b	1.3757743e-17
27	0x23a93813	1.8346765e-17
28	0x2370b53f	1.30488064e-17
29	0x237ad3c3	1.35973694e-17
30	0x23791d98	1.3504584e-17
31	0x238fa3fb	1.557354e-17
32	0x23ea2f0f	2.5390261e-17
33	0x2472e74e	5.2671308e-17
34	0x2430ddd4	3.8351812e-17
35	0x23f3d61c	2.6436792e-17
36	0x239b53b9	1.6840592e-17
37	0x23bfb966	2.078678e-17
38	0x23d1fd4e	2.2767104e-17
39	0x236e4d1c	1.2918334e-17
40	0x23f6b137	2.6746427e-17
41	0x23dc13af	2.3860784e-17
42	0x2425acc4	3.592501e-17
43	0x240e2410	3.0821888e-17
44	0x24c81103	8.676499e-17
45	0x23f8af17	2.6962367e-17
46	0x23b1bdb0	1.9270714e-17
47	0x23b766d9	1.9884457e-17
48	0x23e82c97	2.5172375e-17
49	0x23997a6b	1.664014e-17
50	0x244da035	4.458799e-17
51	0x24172902	3.277764e-17
52	0x24514011	4.5373917e-17
53	0x24d72fea	9.3322556e-17
54	0x2436e7aa	3.9661186e-17
55	0x24255c4d	3.5856853e-17
56	0x23c24ecb	2.1066892e-17
57	0x232a3878	9.227676e-18
58	0x2355fb65	1.1599988e-17
59	0x23c6a120	2.1535442e-17
60	0x24134f8c	3.1942923e-17
61	0x24c3aee9	8.486408e-17
62	0x25145d0b	1.2868478e-16
63	0x255092e6	1.8090895e-16
64	0x24f1befb	1.0484062e-16
65	0x248d6eed	6.133692e-17
66	0x23f30000	2.6346113e-17
67	0x238ecd73	1.5482682e-17
68	0x2315ce74	8.121024e-18
69	0x234e381a	1.1179162e-17
70	0x25c8ca78	3.4831668e-16
71	0x279e810c	4.3993722e-15
72	0x2830f18b	9.822339e-15
73	0x27be6e65	5.2855284e-15
74	0x269ecc92	1.1018901e-15
75	0x2592bbe8	2.5454293e-16
76	0x24d4b150	9.224072e-17
77	0x347b9a72	2.3432384e-07
78	0x3f7fff83	0.99999255
79	0x3f7fff83	0.99999255
80	0x3f7fff83	0.99999255
81	0x3f7fff83	0.99999255
82	0x32dbfd48	2.5610134e-08
83	0x2ca076a9	4.5606474e-12
84	0x28744b36	1.356103e-14
85	0x269ed08b	1.1019978e-15
86	0x25e8f34b	4.0410446e-16
87	0x251fd0ac	1.3861752e-16
88	0x3f7fff83	0.99999255
89	0x3f7fff83	0.99999255
90	0x3f7fff83	0.99999255
91	0x3f7fff83	0.99999255
92	0x3f7fff83	0.99999255
93	0x395e0847	0.00021174653
94	0x2e2c9fa7	3.9250072e-11
95	0x295b6615	4.871631e-14
96	0x272bc7f1	2.3839406e-15
97	0x25f2bfde	4.2110322e-16
98	0x2533ed07	1.5606083e-16
99	0x3f7fff83	0.99999255
100	0x3f7ff7c9	0.99987465
101	0x2fe2cbbc	4.1253923e-10
102	0x2e0b1cb8	3.1630448e-11
103	0x3586c8de	1.0042238e-06
104	0x319ccc1a	4.563401e-09
105	0x2ce9ac86	6.6414122e-12
106	0x29a014c5	7.10903e-14
107	0x27814c6d	3.5887554e-15
108	0x260f86ba	4.979568e-16
109	0x25046397	1.1482917e-16
110	0x2aa31449	2.8968692e-13
111	0x2474ae9f	5.3056976e-17
112	0x2380b670	1.3955053e-17
113	0x260eeb4e	4.9585044e-16
114	0x2c4a16c1	2.8718557e-12
115	0x2d58c46b	1.2321792e-11
116	0x2cb0662a	5.0135633e-12
117	0x29eaf7d2	1.04346775e-13
118	0x276123d3	3.1244443e-15
119	0x25df2018	3.870608e-16
120	0x24bf8514	8.305849e-17
121	0x23e91b77	2.5273542e-17
122	0x23d2ac6a	2.2841266e-17
123	0x2421ffa3	3.5127843e-17
124	0x23a51c29	1.7901262e-17
125	0x236f74aa	1.29809205e-17
126	0x2365cb56	1.2457173e-17
127	0x233e160a	1.0304588e-17
128	0x233360c6	9.724102e-18
129	0x2333a81c	9.739208e-18
130	0x23597c0c	1.17898615e-17
131	0x2336d895	9.912103e-18
132	0x23d6b4cf	2.3278502e-17
133	0x23ae4a07	1.889647e-17
134	0x23b75d1f	1.9880338e-17
135	0x23719a9d	1.3097377e-17
136	0x2384f66f	1.4415837e-17
137	0x23aaab93	1.8504101e-17
138	0x23564b11	1.1616859e-17
139	0x2360b42d	1.2181218e-17
140	0x2310f89d	7.8589016e-18
141	0x2314ca31	8.065912e-18
142	0x235919e4	1.1769076e-17
143	0x2390ca81	1.5698275e-17
144	0x2362a3ea	1.2286195e-17
145	0x23821a9e	1.4105901e-17
146	0x230bbae8	7.574784e-18
147	0x2333ee75	9.754105e-18
148	0x233dab42	1.0281976e-17
149	0x2362a8ee	1.2287257e-17
150	0x233a9d56	1.0116397e-17
151	0x232608ac	9.000714e-18
152	0x233fbba1	1.0393863e-17
153	0x23423da7	1.05298165e-17
154	0x23978b76	1.6430517e-17
155	0x238a93f8	1.5024657e-17
156	0x23a86ec3	1.8261506e-17
157	0x2325de96	8.991802e-18
158	0x234aad01	1.0987077e-17
159	0x237afda8	1.3606241e-17
160	0x2395c779	1.6239092e-17
161	0x23b2ee27	1.939966e-17
162	0x239a0c97	1.6702045e-17
163	0x23830f1b	1.4209446e-17
164	0x23bc17d9	2.03931e-17
165	0x23f190e8	2.6190643e-17
166	0x23894f6a	1.4887203e-17
167	0x23c4e87b	2.1348822e-17
168	0x236eb1a1	1.293962e-17
169	0x23a03725	1.737059e-17
170	0x23f7c3dd	2.6862745e-17
171	0x241d8a57	3.4161127e-17
172	0x24838289	5.703333e-17
173	0x241f9e6f	3.4611828e-17
174	0x244fb1f2	4.5036695e-17
175	0x241892da	3.3084134e-17
176	0x25d100ad	3.6256179e-16
177	0x25a8d872	2.9290023e-16
178	0x267ca2cd	8.76507e-16
179	0x2749ff31	2.8032693e-15
180	0x276a1c4a	3.248936e-15
181	0x27ad7b31	4.815071e-15
182	0x26e0d094	1.5599658e-15
183	0x26830fae	9.094201e-16
184	0x2594c4f7	2.5807376e-16
185	0x2512cc53	1.2732709e-16
186	0x251b869e	1.3489717e-16
187	0x3f7fff83	0.99999255
188	0x3f7fff83	0.99999255
189	0x3f7fff83	0.99999255
190	0x3f7fff83	0.99999255
191	0x3f7fff83	0.99999255
192	0x3f7fd148	0.9992871
193	0x2a947df0	2.6377468e-13
194	0x27084ad3	1.8914354e-15
195	0x25c8ca5a	3.4831588e-16
196	0x25a2321e	2.813648e-16
197	0x25b2a742	3.0991416e-16
198	0x30581e38	7.8623286e-10
199	0x26968db8	1.0446754e-15
200	0x2389d1c4	1.4942409e-17
201	0x22ca6f4b	5.4870046e-18
202	0x25c7056e	3.4524676e-16
203	0x34a8ea01	3.14627e-07
204	0x3199ea39	4.479514e-09
205	0x2b49ab3c	7.164718e-13
206	0x28856099	1.4807859e-14
207	0x26c6c374	1.3791988e-15
208	0x25366efe	1.5823589e-16
209	0x23850311	1.4421188e-17
210	0x22513eaf	2.8357966e-18
211	0x22889b10	3.7027053e-18
212	0x22a8a55b	4.571157e-18
213	0x2408e60b	2.9685153e-17
214	0x2e846bb8	6.0218e-11
215	0x2fa8572c	3.062096e-10
216	0x2d2fd953	9.995854e-12
217	0x28bfc106	2.128897e-14
218	0x26d6bcf6	1.4900451e-15
219	0x2598cfdf	2.6508656e-16
220	0x288401b6	1.4655686e-14
221	0x29c244e3	8.6272806e-14
222	0x317aa265	3.6472099e-09
223	0x3875115a	5.842871e-05
224	0x3c85d631	0.016337486
225	0x3f72c4ae	0.9483136
226	0x2fb19b5f	3.230651e-10
227	0x2b8f1f14	1.0169387e-12
228	0x2890ca9c	1.607508e-14
229	0x26b26484	1.2378476e-15
230	0x25d0cbb5	3.6220286e-16
231	0x3f7fe033	0.99951476
232	0x3f7fff83	0.99999255
233	0x3f7fff83	0.99999255
234	0x3f784c77	0.96991676
235	0x2fabc283	3.1242928e-10
236	0x2d2fd24f	9.994296e-12
237	0x2b8eff6b	1.01606e-12
238	0x2a6bde34	2.0949285e-13
239	0x284c38a9	1.1336561e-14
240	0x26b4e4bb	1.2552007e-15
241	0x25a694d7	2.8897268e-16
242	0x220adf06	1.8820555e-18
243	0x22111a91	1.9665229e-18
244	0x22232428	2.210976e-18
245	0x221c6929	2.1197614e-18
246	0x2238cfdf	2.5046696e-18
247	0x221cd8d5	2.1256732e-18
248	0x223d80f2	2.568254e-18
249	0x22971754	4.095333e-18
250	0x268db160	9.831918e-16
251	0x31196cdd	2.2326312e-09
252	0x3b8fc616	0.0043876274
253	0x21ea76f9	1.5887949e-18
254	0x223b1c8b	2.5358336e-18
255	0x22099a38	1.8648605e-18

stdp2.conv_layer.weight f4 [100, 30, 7, 7]
0	0x3e6102cc	0.21973723
1	0x3e57f0ce	0.21087953
2	0x3e54a0a3	0.20764403
3	0x3e8f3160	0.27967358
4	0x3e70fc93	0.2353385
5	0x3eb57135	0.35437933
6	0x3eb7b621	0.3588114
7	0x3e8ff672	0.2811771
8	0x3ea6b6bc	0.3256129
9	0x3e77e8be	0.24209878
10	0x3e9fc3f5	0.3120419
11	0x3e9211e6	0.2852928
12	0x3e6fbabd	0.23411079
13	0x3e9e68e3	0.30939397
14	0x3e913bd2	0.28365952
15	0x3e488c01	0.19584657
16	0x3e8861f8	0.26637244
17	0x3e97982c	0.29608285
18	0x3eddfbda	0.4335621
19	0x3e8195d5	0.25309625
20	0x3f09b147	0.5378613
21	0x3e81f8cf	0.25385138
22	0x3e8efed6	0.279288
23	0x3eb3406e	0.35010093
24	0x3e904844	0.28180134
25	0x3e96f74c	0.29485548
26	0x3eb44b01	0.35213473
27	0x3e89e10e	0.26929516
28	0x3eee781d	0.46576014
29	0x3e8d365d	0.27580538
30	0x3e5f4eec	0.2180745
31	0x3f079d79	0.5297466
32	0x3e97157c	0.2950858
33	0x3e4f8e48	0.2026912
34	0x3e808b93	0.25106487
35	0x3ea7fac6	0.32808512
36	0x3e5bec57	0.21476875
37	0x3ea3b912	0.31977135
38	0x3e68b0bc	0.22723669
39	0x3ea49a1b	0.32148823
40	0x3e35e2ca	0.17762294
41	0x3ea41b47	0.3205206
42	0x3e9e5db5	0.30930868
43	0x3e714818	0.23562658
44	0x3e89586d	0.26825276
45	0x3e6897aa	0.22714105
46	0x3e72752d	0.23677512
47	0x3e7d17ce	0.24716112
48	0x3ebe23ab	0.37136588
49	0x3ef9983a	0.48748952
50	0x3ed54d9e	0.4166078
51	0x3e7cde29	0.24694122
52	0x3e2b317c	0.16718096
53	0x3e84332a	0.25820285
54	0x3eac1e85	0.33617035
55	0x3e99e701	0.30059054
56	0x3ef2fc71	0.47458223
57	0x3f06137d	0.52373487
58	0x3ec02a70	0.37532377
59	0x3e69d6d5	0.22835858
60	0x3e9b8549	0.30375126
61	0x3e4d2a4e	0.20035669
62	0x3e43665f	0.1908202
63	0x3ee18739	0.4404848
64	0x3eb9fce1	0.36325744
65	0x3eb8c5c9	0.36088398
66	0x3e7924ad	0.24330397
67	0x3e982380	0.29714584
68	0x3e4c38cf	0.19943546
69	0x3e5aecb0	0.21379352
70	0x3e5c4c01	0.21513368
71	0x3e41b4ae	0.1891658
72	0x3e92724d	0.2860283
73	0x3e9fb691	0.31193975
74	0x3e9867e9	0.29766777
75	0x3e827bed	0.25485173
76	0x3eb65889	0.35614422
77	0x3e8af257	0.27138016
78	0x3ea13966	0.31489104
79	0x3e671133	0.22565155
80	0x3eb4cf31	0.35314324
81	0x3e2f2d63	0.17107157
82	0x3e796bc6	0.24357519
83	0x3ea21f57	0.31664535
84	0x3e58d1ca	0.21173778
85	0x3e56a723	0.20962195
86	0x3ea60d64	0.3243209
87	0x3ee5f222	0.44911295
88	0x3e490d44	0.19633967
89	0x3e29e602	0.16591647
90	0x3e8bb124	0.27283585
91	0x3e6854aa	0.22688547
92	0x3e70ccb1	0.23515584
93	0x3ec641f8	0.38722205
94	0x3e4a5473	0.19758777
95	0x3e821664	0.25407708
96	0x3e521e20	0.20519304
97	0x3e86f9dd	0.26362506
98	0x3ed68af3	0.41902885
99	0x3e672c5a	0.22575513
100	0x3eb03327	0.34414026
101	0x3e8113e1	0.2521048
102	0x3e6834ca	0.22676387
103	0x3e82f29f	0.2557573
104	0x3eb6609e	0.35620588
105	0x3f1ca3e0	0.61187553
106	0x3ec1295a	0.3772686
107	0x3ea6df3e	0.32592195
108	0x3e6efde9	0.23339047
109	0x3e569c01	0.20957948
110	0x3e5f545a	0.21809521
111	0x3e8e3f9c	0.27782905
112	0x3ea34910	0.3189168
113	0x3eae5a37	0.34053203
114	0x3ebaac00	0.3645935
115	0x3e9790e9	0.29602745
116	0x3e44ec2d	0.19230719
117	0x3e8af8d2	0.2714296
118	0x3e5946c4	0.21218401
119	0x3e94e006	0.29077166
120	0x3e92e4a7	0.28690073
121	0x3e2f4ad0	0.17118382
122	0x3e9983f9	0.299835
123	0x3e679b4b	0.22617833
124	0x3e7f1962	0.24912027
125	0x3e6aff19	0.22948875
126	0x3e4934d7	0.19649063
127	0x3ea606f4	0.3242718
128	0x3ea73677	0.3265874
129	0x3e6cb0dd	0.23114343
130	0x3e49aa35	0.19693835
131	0x3e8fa3bf	0.28054616
132	0x3e53ef4b	0.20696752
133	0x3e85e384	0.26150143
134	0x3e88c2ab	0.2671102
135	0x3e73ea07	0.23819743
136	0x3e93bd41	0.28855327
137	0x3e80ab51	0.25130704
138	0x3e5cfa40	0.21579838
139	0x3e9627e5	0.29327312
140	0x3e613a9b	0.21995012
141	0x3ea4ed63	0.32212362
142	0x3ee40872	0.44537693
143	0x3f46e0d1	0.7768679
144	0x3e794112	0.24341229
145	0x3e7f7a60	0.24949026
146	0x3e84ddd1	0.25950482
147	0x3ebe3de1	0.37156585
148	0x3e70be10	0.23510003
149	0x3e93be47	0.28856108
150	0x3e8e549e	0.27798933
151	0x3e9ed0f6	0.310188
152	0x3e747634	0.23873216
153	0x3e5f4276	0.21802697
154	0x3eedc3bf	0.46438405
155	0x3e9d7287	0.3075144
156	0x3e86ae2d	0.2630476
157	0x3e98a81f	0.29815766
158	0x3e864620	0.26225376
159	0x3e8e6338	0.27810073
160	0x3e77ff43	0.24218468
161	0x3e5c779a	0.2153
162	0x3e26dc67	0.16295014
163	0x3e769de2	0.24083665
164	0x3e87051b	0.26371083
165	0x3e9d6a77	0.3074529
166	0x3e8be189	0.27320507
167	0x3e49519e	0.1966004
168	0x3e28e7cb	0.16494672
169	0x3e63ef3d	0.22259231
170	0x3ea0cf13	0.31407985
171	0x3eb30c62	0.34970385
172	0x3edacdaf	0.4273505
173	0x3e9b68e4	0.30353463
174	0x3e8ad23d	0.27113524
175	0x3e5685ba	0.2094945
176	0x3e644b63	0.22294383
177	0x3e58942b	0.21150272
178	0x3e949df2	0.29026753
179	0x3e503db0	0.20336032
180	0x3ed05a18	0.40693736
181	0x3ea162dd	0.3152074
182	0x3e68f6fa	0.22750464
183	0x3e7d48e0	0.24734831
184	0x3e46cf13	0.1941493
185	0x3e4e9513	0.20174055
186	0x3e75ffd5	0.24023373
187	0x3ea60548	0.32425904
188	0x3e7d87ea	0.24758878
189	0x3e5e944a	0.21736255
190	0x3e8088dc	0.25104415
191	0x3ea9d906	0.33173388
192	0x3e9ff487	0.31241247
193	0x3e82a809	0.25518826
194	0x3e3f8a89	0.1870519
195	0x3eb309e5	0.34968486
196	0x3e6947a3	0.22781233
197	0x3e9076c6	0.28215617
198	0x3e86828d	0.26271477
199	0x3e393969	0.18088306
200	0x3eb221fd	0.34791556
201	0x3e8ada41	0.2711964
202	0x3e6f505c	0.23370498
203	0x3e681ff0	0.22668433
204	0x3e6a6ef4	0.22893888
205	0x3e9d540e	0.3072819
206	0x3f046ba3	0.5172674
207	0x3ef9df11	0.48803
208	0x3e935d1d	0.28781977
209	0x3e877f5f	0.26464364
210	0x3e8a3dda	0.27000314
211	0x3e67b2fd	0.22626872
212	0x3eac0666	0.33598632
213	0x3ea00bd6	0.3125903
214	0x3ecaf213	0.39637813
215	0x3e62cdeb	0.22148864
216	0x3e2401fb	0.1601638
217	0x3e847a5e	0.2587461
218	0x3ea7acef	0.32749125
219	0x3e40e043	0.18835549
220	0x3e89740b	0.26846346
221	0x3ec68eee	0.38780922
222	0x3e6c0826	0.23049983
223	0x3e8a4946	0.27009028
224	0x3ebc7855	0.36810556
225	0x3ea02ed1	0.31285718
226	0x3e5d8b2b	0.2163512
227	0x3e68b4cd	0.2272522
228	0x3e3e6251	0.18592192
229	0x3e756030	0.23962474
230	0x3ef17bfa	0.471649
231	0x3eab66d2	0.33476883
232	0x3e5fa8c0	0.21841717
233	0x3e98630d	0.2976307
234	0x3f196223	0.5991537
235	0x3ec45c7a	0.38351804
236	0x3eb6c6c5	0.35698524
237	0x3e9f00aa	0.31055194
238	0x3e4737d4	0.1945489
239	0x3e859411	0.26089528
240	0x3e81122a	0.2520917
241	0x3e7efbf9	0.24900807
242	0x3e14b7af	0.14523195
243	0x3e7c06ec	0.24612015
244	0x3e5417c6	0.20712194
245	0x3ee06f76	0.43835038
246	0x3e872f67	0.26403353
247	0x3e7b1399	0.24519195
248	0x3eb39ee0	0.3508215
249	0x3e9f49d8	0.31111026
250	0x3f13643e	0.5757483
251	0x3e7afcd9	0.24510516
252	0x3e831050	0.25598383
253	0x3e6da62b	0.2320792
254	0x3e6cad43	0.23112969
255	0x3e85f77a	0.26165372
